…
2023-04-28 23:27:35.017677: I tensorflow/core/platform/cpu_feature_guard.cc:193] This TensorFlow binary is optimized with oneAPI Deep Neural Network Library (oneDNN) to use the following CPU instructions in performance-critical operations:  AVX AVX2
To enable them in other operations, rebuild TensorFlow with the appropriate compiler flags.
Model: "model"
__________________________________________________________________________________________________
 Layer (type)                   Output Shape         Param #     Connected to
==================================================================================================
 post (InputLayer)              [(None, 10, 1)]      0           []

 conv1d (Conv1D)                (None, 10, 10)       40          ['post[0][0]']

 conv1d_1 (Conv1D)              (None, 10, 10)       510         ['conv1d[0][0]']

 conv1d_5 (Conv1D)              (None, 10, 10)       510         ['conv1d_1[0][0]']

 conv1d_2 (Conv1D)              (None, 10, 10)       710         ['conv1d_1[0][0]']

 add_1 (Add)                    (None, 10, 10)       0           ['conv1d_5[0][0]',
                                                                  'conv1d_1[0][0]']

 conv1d_3 (Conv1D)              (None, 10, 10)       910         ['conv1d_2[0][0]']

 conv1d_6 (Conv1D)              (None, 10, 10)       710         ['add_1[0][0]']

 add (Add)                      (None, 10, 10)       0           ['conv1d_3[0][0]',
                                                                  'conv1d[0][0]']

 conv1d_7 (Conv1D)              (None, 10, 10)       310         ['conv1d_6[0][0]']

 conv1d_4 (Conv1D)              (None, 10, 10)       910         ['add[0][0]']

 add_3 (Add)                    (None, 10, 10)       0           ['conv1d_7[0][0]',
                                                                  'conv1d_4[0][0]']

 conv1d_8 (Conv1D)              (None, 10, 10)       310         ['add_3[0][0]']

 dense (Dense)                  (None, 10, 1)        11          ['conv1d_8[0][0]']

==================================================================================================
Total params: 4,931
Trainable params: 4,931
Non-trainable params: 0
__________________________________________________________________________________________________
Epoch 1/5
WARNING:tensorflow:AutoGraph could not transform <function Model.make_train_function.<locals>.train_function at 0x0000016A7B52F840> and will run it as-is.
…
